…
se(1, activation='sigmoid', name=\"title_output\")(title_features)\n\nmodel_title = tf.keras.Model(inputs=title_input, outputs=title_output)\n\nmodel_title.compile(optimizer='adam', loss='binary_crossentropy', metrics=['accuracy'])\nmodel_title.summary()\n\nModel: \"functional_1\"\n\n\n\n┏━━━━━━━━━━━━━━━━━━━━━━━━━━━━━━━━━━━━━━┳━━━━━━━━━━━━━━━━━━━━━━━━━━━━━┳━━━━━━━━━━━━━━━━━┓\n┃ Layer (type)                         ┃ Output Shape                ┃         Param # ┃\n┡━━━━━━━━━━━━━━━━━━━━━━━━━━━━━━━━━━━━━━╇━━━━━━━━━━━━━━━━━━━━━━━━━━━━━╇━━━━━━━━━━━━━━━━━┩\n│ title (InputLayer)                   │ (None, 1)                   │               0 │\n├──────────────────────────────────────┼─────────────────────────────┼─────────────────┤\n│ text_vectorization                   │ (None, 500)                 │               0 │\n│ (TextVectorization)                  │                             │                 │\n├──────────────────────────────────────┼─────────────────────────────┼─────────────────┤\n│ embedding (Embedding)                │ (None, 500, 10)             │          20,000 │\n├──────────────────────────────────────┼─────────────────────────────┼─────────────────┤\n│ dropout (Dropout)                    │ (None, 500, 10)             │               0 │\n├──────────────────────────────────────┼─────────────────────────────┼─────────────────┤\n│ conv1d (Conv1D)                      │ (None, 496, 128)            │           6,528 │\n├──────────────────────────────────────┼─────────────────────────────┼─────────────────┤\n│ max_pooling1d (MaxPooling1D)         │ (None, 99, 128)             │               0 │\n├──────────────────────────────────────┼─────────────────────────────┼─────────────────┤\n│ global_average_pooling1d             │ (None, 128)                 │               0 │\n│ (GlobalAveragePooling1D)             │                             │                 │\n├──────────────────────────────────────┼─────────────────────────────┼─────────────────┤\n│ dense (Dense)                        │ (None, 64)                  │           8,256 │\n├──────────────────────────────────────┼─────────────────────────────┼─────────────────┤\n│ dropout_1 (Dropout)                  │ (None, 64)                  │               0 │\n├──────────────────────────────────────┼─────────────────────────────┼─────────────────┤\n│ dense_1 (Dense)                      │ (None, 32)                  │           2,080 │\n├──────────────────────────────────────┼─────────────────────────────┼─────────────────┤\n│ title_output (Dense)                 │ (None, 1)                   │              33 │\n└──────────────────────────────────────┴─────────────────────────────┴─────────────────┘\n\n\n\n Total params: 36,897 (144.13 KB)\n\n\n\n Trainable params: 36,897 (144.13 KB)\n\n\n\n Non-trainable params: 0 (0.00 B)\n\n\n\n\n# Fit the model\nfrom keras import utils\n\nutils.plot_model(model_title, \"model_title.png\",\n                       show_shapes=True,\n                       show_layer
…
, text_input],\n    outputs = result\n)\n\nmodel_combine.summary()\n\nmodel_combine.compile(optimizer='adam', loss='binary_crossentropy', metrics=['accuracy'])\nrun_3 = model_combine.fit(train_dataset, epochs=20, validation_data=val_dataset)\n\nModel: \"functional_5\"\n\n\n\n┏━━━━━━━━━━━━━━━━━━━━━━━━━━━┳━━━━━━━━━━━━━━━━━━━━━━━━┳━━━━━━━━━━━━━━━━┳━━━━━━━━━━━━━━━━━━━━━━━━┓\n┃ Layer (type)              ┃ Output Shape           ┃        Param # ┃ Connected to           ┃\n┡━━━━━━━━━━━━━━━━━━━━━━━━━━━╇━━━━━━━━━━━━━━━━━━━━━━━━╇━━━━━━━━━━━━━━━━╇━━━━━━━━━━━━━━━━━━━━━━━━┩\n│ title (InputLayer)        │ (None, 1)              │              0 │ -                      │\n├───────────────────────────┼────────────────────────┼────────────────┼────────────────────────┤\n│ text (InputLayer)         │ (None, 1)              │              0 │ -                      │\n├───────────────────────────┼────────────────────────┼────────────────┼────────────────────────┤\n│ text_vectorization        │ (None, 500)            │              0 │ title[0][0]            │\n│ (TextVectorization)       │                        │                │                        │\n├───────────────────────────┼────────────────────────┼────────────────┼────────────────────────┤\n│ text_vectorization_1      │ (None, 500)            │              0 │ text[0][0]             │\n│ (TextVectorization)       │                        │                │                        │\n├───────────────────────────┼────────────────────────┼────────────────┼────────────────────────┤\n│ embedding (Embedding)     │ (None, 500, 10)        │         20,000 │ text_vectorization[0]… │\n│                           │                        │                │ text_vectorization_1[… │\n├───────────────────────────┼────────────────────────┼────────────────┼────────────────────────┤\n│ dropout (Dropout)         │ (None, 500, 10)        │              0 │ embedding[0][0]        │\n├───────────────────────────┼────────────────────────┼────────────────┼────────────────────────┤\n│ dropout_2 (Dropout)       │ (None, 500, 10)        │              0 │ embedding[1][0]        │\n├───────────────────────────┼────────────────────────┼────────────────┼────────────────────────┤\n│ conv1d (Conv1D)           │ (None, 496, 128)       │          6,528 │ dropout[0][0]          │\n├───────────────────────────┼────────────────────────┼────────────────┼────────────────────────┤\n│ conv1d_1 (Conv1D)         │ (None, 496, 128)       │          6,528 │ dropout_2[0][0]        │\n├───────────────────────────┼────────────────────────┼────────────────┼────────────────────────┤\n│ max_pooling1d             │ (None, 99, 128)        │              0 │ conv1d[0][0]           │\n│ (MaxPooling1D)            │                        │                │                        │\n├───────────────────────────┼────────────────────────┼────────────────┼────────────────────────┤\n│ max_pooling1d_1           │ (None, 99, 128)        │              0 │ conv1d_1[0][0]         │\n│ (MaxPooling1D)            │                        │                │                        │\n├───────────────────────────┼────────────────────────┼────────────────┼────────────────────────┤\n│ global_average_pooling1d  │ (None, 128)            │              0 │ max_pooling1d[0][0]    │\n│ (GlobalAveragePooling1D)  │                        │                │                        │\n├───────────────────────────┼────────────────────────┼────────────────┼────────────────────────┤\n│ global_average_pooling1d… │ (None, 128)            │              0 │ max_pooling1d_1[0][0]  │\n│ (GlobalAveragePooling1D)  │                        │                │                        │\n├───────────────────────────┼────────────────────────┼────────────────┼────────────────────────┤\n│ dense (Dense)             │ (None, 64)             │          8,256 │ global_average_poolin… │\n├───────────────────────────┼────────────────────────┼────────────────┼────────────────────────┤\n│ dense_2 (Dense)           │ (None, 64)             │          8,256 │ global_average_poolin… │\n├───────────────────────────┼────────────────────────┼────────────────┼────────────────────────┤\n│ dropout_1 (Dropout)       │ (None, 64)             │              0 │ dense[0][0]            │\n├───────────────────────────┼────────────────────────┼────────────────┼────────────────────────┤\n│ dropout_3 (Dropout)       │ (None, 64)             │              0 │ dense_2[0][0]          │\n├───────────────────────────┼────────────────────────┼────────────────┼────────────────────────┤\n│ dense_1 (Dense)           │ (None, 32)             │          2,080 │ dropout_1[0][0]        │\n├───────────────────────────┼────────────────────────┼────────────────┼────────────────────────┤\n│ dense_3 (Dense)           │ (None, 32)             │          2,080 │ dropout_3[0][0]        │\n├───────────────────────────┼────────────────────────┼────────────────┼────────────────────────┤\n│ concatenate (Concatenate) │ (None, 64)             │              0 │ dense_1[0][0],         │\n│                           │                        │                │ dense_3[0][0]          │\n├───────────────────────────┼────────────────────────┼────────────────┼────────────────────────┤\n│ dense_4 (Dense)           │ (None, 32)             │          2,080 │ concatenate[0][0]      │\n├───────────────────────────┼────────────────────────┼────────────────┼────────────────────────┤\n│ dropout_4 (Dropout)       │ (None, 32)             │              0 │ dense_4[0][0]          │\n├───────────────────────────┼────────────────────────┼────────────────┼────────────────────────┤\n│ fake (Dense)              │ (None, 1)              │             33 │ dropout_4[0][0]        │\n└───────────────────────────┴────────────────────────┴────────────────┴────────────────────────┘\n\n\n\n Total params: 55,841 (218.13 KB)\n\n\n\n Trainable params: 55,841 (218.13 KB)\n\n\n\n Non-trainable params: 0 (0.00 B)\n\n\n\nEpoch 1/20\n180/180 ━━━━━━━━━━━━━━━━━━━━ 9s 28ms/step - accuracy: 0.8903 - loss: 1.1074 - val_accuracy: 0.9767 - val_loss: 0.2219\nEpoch 2/2
…
4 - val_accuracy: 0.9592\nEpoch 19/20\n146/146 [==============================] - 6s 44ms/step - loss: 0.2954 - accuracy: 0.9103 - val_loss: 0.1378 - val_accuracy: 0.9553\nEpoch 20/20\n146/146 [==============================] - 6s 44ms/step - loss: 0.2985 - accuracy: 0.9090 - val_loss: 0.1122 - val_accuracy: 0.9622\n\n\n\nmodel4.summary()\n\nModel: \"sequential_26\"\n_________________________________________________________________\n Layer (type)                Output Shape              Param #   \n=================================================================\n sequential_25 (Sequential)  (None, 150, 150, 3)       0         \n                                                                 \n model_1 (Functional)        (None, 5, 5, 960)         2996352   \n                                                                 \n global_max_pooling2d_1 (Gl  (None, 960)               0         \n obalMaxPooling2D)                                               \n                                                                 \n dropout_22 (Dropout)        (None, 960)               0         \n                                                                 \n dense_43 (Dense)            (None, 2)                 1922      \n                                                                 \n=================================================================\nTotal params: 2998274 (11.44 MB)\nTrainable params: 1922 (7.51 KB)\nNon-trainable params: 2996352 (11.43 MB)\n_________________________________________________________________\n\n\n\nacc = history.history['accuracy']\nval_acc = history.history['val_accuracy'
…
